…
_type":"display_data","data":{"text/plain":"Loading checkpoint shards:   0%|          | 0/2 [00:00<?, ?it/s]","application/vnd.jupyter.widget-view+json":{"version_major":2,"version_minor":0,"model_id":"a834b8e9ac2241c4b3b8976a18d96474"}},"metadata":{}},{"output_type":"display_data","data":{"text/plain":"generation_config.json:   0%|          | 0.00/239 [00:00<?, ?B/s]","application/vnd.jupyter.widget-view+json":{"version_major":2,"version_minor":0,"model_id":"248ec684b9c04829b1c4dbc0368839b3"}},"metadata":{}},{"name":"stdout","text":"Qwen3ForCausalLM(\n  (model): Qwen3Model(\n    (embed_tokens): Embedding(151936, 2048)\n    (layers): ModuleList(\n      (0-27): 28 x Qwen3DecoderLayer(\n        (self_attn): Qwen3Attention(\n          (q_proj): Linear(in_features=2048, out_features=2048, bias=False)\n          (k_proj): Linear(in_features=2048, out_features=1024, bias=False)\n          (v_proj): Linear(in_features=2048, out_features=1024, bias=False)\n          (o_proj): Linear(in_features=2048, out_features=2048, bias=False)\n          (q_norm): Qwen3RMSNorm((128,), eps=1e-06)\n          (k_norm): Qwen3RMSNorm((128,), eps=1e-06)\n        )\n        (mlp): Qwen3MLP(\n          (gate_proj): Linear(in_features=2048, out_features=6144, bias=False)\n          (up_proj): Linear(in_features=2048, out_features=6144, bias=False)\n          (down_proj): Linear(in_features=6144, out_features=2048, bias=False)\n          (act_fn): SiLU()\n        )\n        (input_layernorm): Qwen3RMSNorm((2048,), eps=1e-06)\n        (post_attention_layernorm): Qwen3RMSNorm((2048,), eps=1e-06)\n      )\n    )\n    (norm): Qwen3RMSNorm((2048,), eps=1e-06)\n    (rotary_emb): Qwen3RotaryEmbedding()\n  )\n  (lm_head): Linear(in_features=2048, out_features=151936, bias=False)\n)\n","output_type":"stream"},{"execution_count":5,"output_type":"execute_result","data":{"text/plain":"Qwen3ForCausalLM(\n  (model): Qwen3Model(\n    (embed_tokens): Embedding(151936, 2048)\n    (layers): ModuleList(\n      (0-27): 28 x Qwen3DecoderLayer(\n        (self_attn): Qwen3Attention(\n          (q_proj): Linear(in_features=2048, out_features=2048, bias=False)\n          (k_proj): Linear(in_features=2048, out_features=1024, bias=False)\n          (v_proj): Linear(in_features=2048, out_features=1024, bias=False)\n          (o_proj): Linear(in_features=2048, out_features=2048, bias=False)\n          (q_norm): Qwen3RMSNorm((128,), eps=1e-06)\n          (k_norm): Qwen3RMSNorm((128,), eps=1e-06)\n        )\n        (mlp): Qwen3MLP(\n          (gate_proj): Linear(in_features=2048, out_features=6144, bias=False)\n          (up_proj): Linear(in_features=2048, out_features=6144, bias=False)\n          (down_proj): Linear(in_features=6144, out_features=2048, bias=False)\n          (act_fn): SiLU()\n        )\n        (input_layernorm): Qwen3RMSNorm((2048,), eps=1e-06)\n        (post_attention_layernorm): Qwen3RMSNorm((2048,), eps=1e-06)\n      )\n    )\n    (norm): Qwen3RMSNorm((2048,), eps=1e-06)\n    (rotary_emb): Qwen3RotaryEmbedding()\n  )\n  (lm_head): Linear(in_features=2048, out_features=151936, bias=False)\n)"},"metadata":{}}],"execution_count":5},{"cell_type":"markdown","source":"## Load TEST Data","metadata":{}},{"cell_type":"code","source":"test_data = pd.read_csv('/kaggle/input/jigsaw-agile-community-rules/test.csv')","metadata":{"trusted":true,"execution":{"iopub.status.busy":"2025-09-24T01:26:28.285447Z","iopub.execute_input":"2025-09-24T01:26
…
