…
 one has already been registered\n","E0000 00:00:1760047464.321045      19 cuda_blas.cc:1418] Unable to register cuBLAS factory: Attempting to register factory for plugin cuBLAS when one has already been registered\n"]},{"data":{"application/vnd.jupyter.widget-view+json":{"model_id":"dbf4d60967cc48ce8a1fc96eddbce482","version_major":2,"version_minor":0},"text/plain":["Loading checkpoint shards:   0%|          | 0/2 [00:00<?, ?it/s]"]},"metadata":{},"output_type":"display_data"},{"name":"stdout","output_type":"stream","text":["Gemma2ForCausalLM(\n","  (model): Gemma2Model(\n","    (embed_tokens): Embedding(256000, 2304, padding_idx=0)\n","    (layers): ModuleList(\n","      (0-25): 26 x Gemma2DecoderLayer(\n","        (self_attn): Gemma2Attention(\n","          (q_proj): Linear(in_features=2304, out_features=2048, bias=False)\n","          (k_proj): Linear(in_features=2304, out_features=1024, bias=False)\n","          (v_proj): Linear(in_features=2304, out_features=1024, bias=False)\n","          (o_proj): Linear(in_features=2048, out_features=2304, bias=False)\n","        )\n","        (mlp): Gemma2MLP(\n","          (gate_proj): Linear(in_features=2304, out_features=9216, bias=False)\n","          (up_proj): Linear(in_features=2304, out_features=9216, bias=False)\n","          (down_proj): Linear(in_features=9216, out_features=2304, bias=False)\n","          (act_fn): PytorchGELUTanh()\n","        )\n","        (input_layernorm): Gemma2RMSNorm((2304,), eps=1e-06)\n","        (post_attention_layernorm): Gemma2RMSNorm((2304,), eps=1e-06)\n","        (pre_feedforward_layernorm): Gemma2RMSNorm((2304,), eps=1e-06)\n","        (post_feedforward_layernorm): Gemma2RMSNorm((2304,), eps=1e-06)\n","      )\n","    )\n","    (norm): Gemma2RMSNorm((2304,), eps=1e-06)\n","    (rotary_emb): Gemma2RotaryEmbedding()\n","  )\n","  (lm_head): Linear(in_features=2304, out_features=256000, bias=False)\n",")\n"]},{"data":{"text/plain":["Gemma2ForCausalLM(\n","  (model): Gemma2Model(\n","    (embed_tokens): Embedding(256000, 2304, padding_idx=0)\n","    (layers): ModuleList(\n","      (0-25): 26 x Gemma2DecoderLayer(\n","        (self_attn): Gemma2Attention(\n","          (q_proj): Linear(in_features=2304, out_features=2048, bias=False)\n","          (k_proj): Linear(in_features=2304, out_features=1024, bias=False)\n","          (v_proj): Linear(in_features=2304, out_features=1024, bias=False)\n","          (o_proj): Linear(in_features=2048, out_features=2304, bias=False)\n","        )\n","        (mlp): Gemma2MLP(\n","          (gate_proj): Linear(in_features=2304, out_features=9216, bias=False)\n","          (up_proj): Linear(in_features=2304, out_features=9216, bias=False)\n","          (down_proj): Linear(in_features=9216, out_features=2304, bias=False)\n","          (act_fn): PytorchGELUTanh()\n","        )\n","        (input_layernorm): Gemma2RMSNorm((2304,), eps=1e-06)\n","        (post_attention_layernorm): Gemma2RMSNorm((2304,), eps=1e-06)\n","        (pre_feedforward_layernorm): Gemma2RMSNorm((2304,), eps=1e-06)\n","        (post_feedforward_layernorm): Gemma2RMSNorm((2304,), eps=1e-06)\n","      )\n","    )\n","    (norm): Gemma2RMSNorm((2304,), eps=1e-06)\n","    (rotary_emb): Gemma2RotaryEmbedding()\n","  )\n","  (lm_head): Linear(in_features=2304, out_features=256000, bias=False)\n",")"]},"execution_count":2,"metadata":{},"output_type":"execute_result"}],"source":["\n","GEMMA_PATH = kagglehub.model_download(\"google/gemma-2/transformers/gemma-2-2b-it\")\n","#GEMMA_PATH = kagglehub.model_download(\"google/gemma-3/transformers/gemma-3-1b-it\")\n","#GEMMA_PATH = kagglehub.model_download(\"google/gemma-3n/transformers/gemma-3n
…
